predict_code/best_dnn_extractor.pth (torch, 279983 bytes, 6 tensors)

feature_extractor.0.weight f4 [256, 94]
0.095012136 0.08577975 -0.056332078 0.11937161 -0.008041234 -0.08150724 0.04650093 0.032226533
0.09352649 0.0023505213 -0.030807674 -0.11937026 -0.1263396 0.17943622 -0.017374247 0.03876061
0.0776312 -0.06340667 -0.0008054492 -0.07759069 0.04101454 -0.049900707 -0.00092092017 0.06621229
0.012866568 0.035552897 -0.047850944 -0.059467748 -0.013724593 -0.0088128075 -0.072876856 -0.05799184
0.015557302 0.023367822 -0.026395991 0.01117674 -0.050289497 0.06536938 -0.1074935 -0.067499846
-0.10418774 -0.10451923 0.07040663 0.03484792 -0.06605438 0.0048258905 0.066883765 -0.08447144
-0.00781748 -0.010630138 -0.042632844 0.024607627 -0.036944963 0.038173284 0.041985206 -0.044953115
0.01566111 -0.00776184 0.06296629 0.029043902 0.03451665 0.026182152 0.024974676 0.02132212
0.009188099 0.021953182 0.13526286 0.048955087 -0.0052796365 0.058473095 0.07894677 0.052388787
0.062119108 0.009922065 0.027021933 -0.07204155 -0.047808196 0.048448518 -0.031942796 0.1123772
-0.104943186 -0.09767831 -0.035953265 -0.030131366 0.058662683 -0.009190259 0.04382039 -0.034407757
0.055009667 -0.08575836 0.042326078 -0.0668522 -0.019966533 -0.0011428106 0.06685708 -0.022306658
-0.07627347 -0.024718957 -0.0033626556 -0.04480018 0.061456814 -0.1497268 -0.012868428 -0.1424534
-0.043299947 0.020974545 -0.072802275 -0.13990329 0.033563927 0.027455328 0.093689844 0.0656039
0.048609365 -0.011238502 -0.08602155 -0.037213977 0.093569934 -0.090925746 -0.072283156 0.12926956
0.020875033 0.043037742 0.100880206 0.08597793 0.037619226 0.004026108 -0.094928265 -0.09462736
-0.061511897 0.002766633 -0.005761245 -0.10676154 0.0431917 -0.03161171 0.052445333 -0.06994091
-0.022922466 0.09557416 0.08967785 -0.015137218 -0.020829514 0.06681508 -0.022727057 -0.12815723
-0.009627494 0.111704476 -0.059711564 0.08538048 0.0674841 -0.103066176 -0.0009492342 0.011687691
0.0007825672 -0.016370425 0.034411393 0.033825915 -0.018658774 0.041560642 -0.031173924 0.015587891
0.049510438 -0.05484464 0.03170602 0.0025444936 0.02946574 0.047742177 0.030220453 0.009375143
-0.01059016 0.074548416 -0.06973338 -0.0062454725 0.028635837 0.024244383 0.07322898 0.06622054
-0.021953844 -0.03263682 -0.027684912 0.06462044 -0.028639805 -0.06502774 0.06128624 -0.016607963
-0.07594124 -0.07973502 0.02420814 -0.066626616 -0.015903842 0.115022264 0.040101785 -0.08703102
0.016340587 -0.08396572 -0.07282985 0.035704453 0.06695192 0.08230158 0.033117093 0.026225071
0.0132554965 -0.07386953 0.04564103 0.034086425 -0.108753696 0.054432925 -0.010239136 0.076995045
-0.08384025 -0.06405573 -0.065380566 0.069361486 -0.0029299748 0.14827408 0.077514514 -0.053245563
-0.089749984 -0.012887507 -0.055769075 -0.089796916 -0.007035146 0.026960336 0.02164501 -0.049714163
0.015889801 0.05913449 0.02989862 -0.055641145 0.08141191 0.04652369 0.070860215 -0.07229414
0.120832175 0.09028925 0.0094487285 0.10566926 -0.07824649 -0.13707094 0.03159277 -0.07630545
-0.04922185 -0.0607067 -0.074667305 0.047887105 -0.011974207 -0.06251126 0.01647488 0.06820769
0.0638779 0.020573087 0.08189201 0.032852806 0.05897356 -0.10584452 0.036379833 -0.01596846
00000000: b995 c23d 4bad af3d 77bc 66bd 1a79 f43d
00000010: 61bf 03bc 45ed a6bd c277 3e3d f8ff 033d
00000020: d18a bf3d 340b 1a3b 6060 fcbc 6578 f4bd
00000030: 2b5f 01be 21be 373e 7054 8ebc 72c3 1e3d
00000040: 1bfd 9e3d 5bdb 81bd c824 53ba dee7 9ebd
00000050: ddfe 273d af64 4cbd e869 71ba 4f9a 873d
00000060: 4cce 523c ea9f 113d 5aff 43bd 7494 73bd
00000070: 1edd 60bc 9863 10bc 7640 95bd da88 6dbd
00000080: 0ee4 7e3c e06d bf3c 683c d8bc a51e 373c
00000090: 5cfc 4dbd 62e0 853d 8d25 dcbd 5c3d 8abd
000000a0: 6260 d5bd 2e0e d6bd 5a31 903d b1bc 0e3d
000000b0: 8547 87bd 8122 9e3b 5bfa 883d 5dff acbd
000000c0: e314 00bc 082a 2ebc c79f 2ebd ef95 c93c
000000d0: 9a53 17bd 975b 1c3d aef8 2b3d c220 38bd
000000e0: ba4b 803c 0857 febb 78f4 803d 7aed ed3c
000000f0: 5561 0d3d f47b d63c b197 cc3c baab ae3c
00000100: ae89 163c 29d7 b33c 5982 0a3e 2185 483d
00000110: cd00 adbb 7c81 6f3d d8ae a13d a095 563d
00000120: 9b70 7e3d 2890 223c 1a5d dd3c 858a 93bd
00000130: 87d2 43bd f471 463d 73d6 02bd 0426 e63d
00000140: 74ec d6bd 910b c8bd bb43 13bd 0ed6 f6bc
00000150: 4848 703d bd92 16bc 027d 333d 26ef 0cbd
00000160: d151 613d 14a2 afbd 1c5e 2d3d cee9 88bd
00000170: db90 a3bc 5cca 95ba 5dec 883d 74bc b6bc
00000180: 4435 9cbd 697f cabc 0060 5cbb 6580 37bd
00000190: 24ba 7b3d fb51 19be 19d6 52bc 4edf 11be
000001a0: 495b 31bd cfd2 ab3c 5c19 95bd cf42 0fbe
000001b0: 547a 093d ffe9 e03c 76e0 bf3d 565b 863d
000001c0: 9d1a 473d b221 38bc 112c b0bd af6d 18bd
000001d0: 98a1 bf3d 4737 babd 3109 94bd 3d5f 043e
000001e0: 1e02 ab3c 5848 303d 489a ce3d 3215 b03d
000001f0: 9e16 1a3d 71ed 833b c069 c2bd fdcb c1bd
00000200: e6f3 7bbd 6650 353b d3c8 bcbb cba5 dabd
00000210: c8e9 303d 487b 01bd ebd0 563d 2e3d 8fbd
00000220: e5c7 bbbc 63bc c33d 05a9 b73d 1802 78bc
00000230: a8a2 aabc 58d6 883d 182e babc a63b 03be
00000240: a3bc 1dbc 51c5 e43d 1d94 74bd f6db ae3d
00000250: 1b35 8a3d 5c14 d3bd 07d6 78ba bb7d 3f3c
00000260: 3225 4d3a 451b 86bc f6f2 0c3d 0b8d 0a3d
00000270: 49da 98bc 7e3b 2a3d 7560 ffbc 5b64 7f3c
00000280: 75cb 4a3d c6a4 60bd 2cde 013d 85c1 263b
00000290: 2362 f13c 4d8d 433d e290 f73c 339a 193c
000002a0: 5a82 2dbc d7ac 983d 60d0 8ebd d2a6 ccbb
000002b0: b495 ea3c 289c c63c 13f9 953d a29e 873d
000002c0: 8cd8 b3bc 30ae 05bd 78cb e2bc b957 843d
000002d0: 069e eabc 442d 85bd 4807 7b3d 6c0d 88bc
000002e0: 1587 9bbd 1d4c a3bd 2650 c63c 8973 88bd
000002f0: c648 82bc cb90 eb3d c541 243d 523d b2bd
00000300: b2dc 853c 38f6 abbd d127 95bd d53e 123d
00000310: 171e 893d bb8d a83d caa5 073d f6d5 d63c
00000320: 952d 593c e848 97bd 17f2 3a3d 359e 0b3d
00000330: 42ba debd 0ff5 5e3d 0dc2 27bc 94af 9d3d
00000340: 70b4 abbd a72f 83bd 3fe6 85bd 650d 8e3d
00000350: d204 40bb 29d5 173e eebf 9e3d 0518 5abd
00000360: d7ce b7bd 1f26 53bc 1d6e 64bd 72e7 b7bd
00000370: 1587 e6bb ecdb dc3c e050 b13c 14a1 4bbd
00000380: 542b 823c 0237 723d f3ed f43c f8e7 63bd
00000390: 4abb a63d a08f 3e3d 291f 913d f30e 94bd
000003a0: dc76 f73d 92e9 b83d d7ce 1a3c 2069 d83d
000003b0: b23f a0bd 535c 0cbe 6c67 013d 0846 9cbd
000003c0: da9c 49bd 97a7 78bd 2ceb 98bd 4525 443d
000003d0: 772f 44bc e705 80bd 54f6 863c 79b0 8b3d
000003e0: 6bd2 823d e488 a83c 00b7 a73d aa90 063d
000003f0: 428e 713d 03c5 d8bd 0503 153d 4ad0 82bc

feature_extractor.0.bias f4 [256]
-0.13089462 -0.023020808 -0.014170498 0.056166667 -0.12343592 0.083865084 0.013929273 -0.11113205
-0.23173328 0.0502722 -0.026011499 0.01779953 0.1382779 -0.07267236 0.10019092 0.05567048
0.039141756 -0.020421011 0.017474942 0.076231234 0.085009314 -0.1398614 -0.11411387 -0.042810842
0.1580937 0.06546852 -0.014345558 0.04143717 0.13437608 -0.030935228 0.09706245 -0.043968745
-0.06851427 0.05752079 0.08720272 -0.04391078 0.043234356 -0.17022546 0.071212456 0.017743245
0.099723205 0.013203607 -0.06294478 0.021439772 0.059105378 0.097878486 0.061290726 0.09946368
-0.11698991 -0.07010185 -0.023475746 0.046128634 0.11157828 0.06733869 0.07814166 -0.1145943
0.016698916 0.02446978 0.013859954 -0.10369752 -0.15985502 0.09875484 0.03593884 0.053342935
0.0497422 0.025690334 -0.08106527 0.012268404 0.054155543 -0.0405504 -0.12432963 0.11705758
0.011716143 0.0054221684 0.038829982 0.010324224 0.06783742 0.07372519 0.13735352 -0.058598336
-0.118203215 -0.061236795 -0.10623514 0.1459315 0.07888735 -0.04223682 0.06076545 0.034214117
-0.09289687 -0.033275146 0.00066335395 0.04990078 0.0784036 -0.09483084 -0.034380812 -0.04904667
-0.09029354 -0.06691001 0.009343108 -0.040111322 -0.058003936 0.103726074 -0.05451859 -0.04141536
0.10131468 -0.057816077 0.106709026 0.024865545 -0.05257115 -0.013127168 -0.02169398 0.047318026
0.019653156 -0.0071973377 -0.041891776 0.07795723 -0.021201318 -0.06461674 -0.021637911 0.098903164
0.066995785 0.00018367029 0.11684264 0.04950306 0.019761758 -0.046673324 0.010365505 -0.099345736
-0.032386087 0.08581296 0.07182861 0.039550014 0.030596929 0.04975317 -0.06324075 -0.0012823225
0.077940725 0.09843069 0.056180727 0.13917698 -0.070224576 -0.05145968 -0.069613636 0.0769284
0.04493152 0.014578819 -0.081058696 0.067140825 0.023111947 0.09129076 0.0015964828 -0.07636249
0.040569577 0.034012813 -0.024452891 -0.020914223 -0.12073671 0.11604562 0.11028648 -0.04013783
-0.066909954 0.034617126 0.060739245 -0.02322049 0.08854701 -0.009565721 0.07599541 0.120591186
0.08051331 0.02519049 0.115966946 -0.02259033 -0.08244713 -0.022943117 0.08160316 0.032176692
0.04633299 -0.07184937 -0.10402882 0.016764171 -0.07327897 -0.026360638 0.087849826 -0.032728326
0.10177408 0.06342422 0.060737964 -0.028583067 0.037325002 0.015689747 0.018786404 0.11290332
0.0569947 -0.00919951 -0.027842006 -0.08208572 -0.047326162 0.10496905 0.05219749 -0.013620727
0.021887006 0.011819676 0.09535978 -0.01889823 0.049919624 -0.026505055 0.022793623 0.10192814
0.13457584 -0.028863126 -0.08243224 0.09232875 -0.012831066 0.0488711 0.11589495 -0.084913254
0.059857856 -0.10284244 0.02723331 -0.032572154 0.06897475 0.09619073 0.038039133 -0.024383036
-0.0109636355 -0.025005216 0.11066582 0.08681742 0.10803561 -0.06442301 -0.07484091 0.13089937
0.07830682 -0.09415955 0.032899614 0.13436726 -0.053128157 -0.079470865 0.08609675 -0.029851062
0.043917023 -0.0027872934 0.12696417 -0.021208188 -0.10907717 0.0947974 -0.0075607975 0.07737718
0.032972284 0.05768955 0.13234049 0.12641278 0.03695551 0.11935698 0.019632438 0.024202414
00000000: 3d09 06be 2296 bcbc 602b 68bc 050f 663d
00000010: f9cb fcbd 75c1 ab3d 9b37 643c 3399 e3bd
00000020: 7d4b 6dbe 39ea 4d3d 1116 d5bc 52d0 913c
00000030: b998 0d3e 3fd5 94bd e630 cd3d bb06 643d
00000040: 1b53 203d f749 a7bc 9c27 8f3c 1f1f 9c3d
00000050: 5d19 ae3d d437 0fbe 88b4 e9bd 6c5a 2fbd
00000060: 51e3 213e 5c14 863d a209 6bbc 06ba 293d
00000070: e299 093e e06b fdbc aec8 c63d 9218 34bd
00000080: 3651 8cbd eb9a 6b3d 5797 b23d cadb 33bd
00000090: 8216 313d 954f 2ebe d6d7 913d 485a 913c
000000a0: ae3b cc3d f153 583c 31e9 80bd 76a2 af3c
000000b0: 7b18 723d 8474 c83d fc0b 7b3d 9db3 cb3d
000000c0: 6898 efbd 8f91 8fbd 3550 c0bc 61f1 3c3d
000000d0: 2783 e43d dee8 893d bc08 a03d 6bb0 eabd
000000e0: 2acc 883c d974 c83c dc14 633c 5e5f d4bd
000000f0: 09b1 23be fa3f ca3d 9b34 133d 1f7e 5a3d
00000100: 7abe 4b3d 8974 d23c 8c05 a6bd 6a01 493c
00000110: 34d2 5d3d 2d18 26bd 88a0 febd e2bb ef3d
00000120: 11f5 3f3c 72ac b13b 300c 1f3d ef26 293c
00000130: 58ee 8a3d 3bfd 963d 67a6 0c3e cf04 70bd
00000140: 8714 f2bd 6fd3 7abd cf91 d9bd 116f 153e
00000150: b18f a13d 8400 2dbd 31e5 783d 1a24 0c3d
00000160: b740 bebd 854b 08bd eee4 2d3a c364 4c3d
00000170: 1192 a03d ac36 c2bd e5d2 0cbd 29e5 48bd
00000180: d2eb b8bd 1e08 89bd d613 193c c54b 24bd
00000190: 8995 6dbd 566e d43d e34e 5fbd 27a3 29bd
000001a0: 127e cf3d 8dd0 6cbd 438a da3d d4b2 cb3c
000001b0: d954 57bd 5513 57bc 93b7 b1bc 8cd0 413d
000001c0: a8ff a03c a5d7 ebbb b696 2bbd 0aa8 9f3d
000001d0: 63ae adbc c855 84bd fd41 b1bc be8d ca3d
000001e0: 1635 893d 9e97 4039 324b ef3d b8c3 4a3d
000001f0: 69e3 a13c 872c 3fbd 14d4 293c c775 cbbd
00000200: 46a7 04bd b5be af3d e11a 933d 32ff 213d
00000210: 69a6 fa3c fbc9 4b3d 5e84 81bd 9a13 a8ba
00000220: 639f 9f3d 0896 c93d c31d 663d 6984 0e3e
00000230: e7d1 8fbd 63c7 52bd 9891 8ebd a38c 9d3d
00000240: 1d0a 383d 00dc 6e3c 1a02 a6bd 2181 893d
00000250: 4455 bd3c a6f6 ba3d 1341 d13a f063 9cbd
00000260: 492c 263d 0551 0b3d 6e51 c8bc 4e54 abbc
00000270: cf44 f7bd 53a9 ed3d e1dd e13d 9167 24bd
00000280: 1608 89bd b0ca 0d3d b7c9 783d e638 bebc
00000290: 2358 b53d 8bb9 1cbc 7ba3 9b3d 83f8 f63d
000002a0: 2ae4 a43d 495c ce3c 1480 ed3d 5b0f b9bc
000002b0: 0ada a8bd 34f3 bbbc 8f1f a73d b5cb 033d
000002c0: a9c7 3d3d c325 93bd 100d d5bd 0455 893c
000002d0: 4913 96bd 44f2 d7bc 9cea b33d 230e 06bd
000002e0: ee6e d03d 8fe4 813d 5fc8 783d 0927 eabc
000002f0: 1ae2 183d c987 803c f2e5 993c db39 e73d
00000300: 4673 693d 8bb9 16bc eb14 e4bc 8f1c a8bd
00000310: 14d9 41bd 03fa d63d 09cd 553d 7829 5fbc
00000320: 614c b33c 50a7 413c fd4b c33d 76d0 9abc
00000330: 8578 4c3d 2121 d9bc b1b9 ba3c b3bf d03d
00000340: 40ce 093e 5d72 ecbc 3cd2 a8bd db16 bd3d
00000350: 6439 52bc 102d 483d 555a ed3d 00e7 adbd
00000360: 832d 753d 0f9f d2bd 6418 df3c 616a 05bd
00000370: a242 8d3d a5ff c43d ecce 1b3d efbe c7bc
00000380: d2a0 33bc bdd7 ccbc c3a4 e23d 55cd b13d
00000390: c641 dd3d 36f0 83bd 3146 99bd 7c0a 063e
000003a0: 535f a03d b9d6 c0bd bfc1 063d 9297 093e
000003b0: e99c 59bd 9fc1 a2bd 7e53 b03d 378a f4bc
000003c0: 56e2 333d 06ab 36bb e502 023e cbbc adbc
000003d0: da63 dfbd 2425 c23d 91c0 f7bb ed77 9e3d
000003e0: f20d 073d e14b 6c3d 4484 073e 5a72 013e
000003f0: a95e 173d 6f71 f43d 35d4 a03c 2444 c63c

feature_extractor.3.weight f4 [128, 256]
-0.10736124 0.019322162 -0.0467322 0.053715922 -0.01224095 -0.00801427 -0.036768213 0.05579584
-0.0037077211 -0.031059675 0.087709755 -0.017176364 0.08189888 0.00533742 0.05417369 0.008871106
-0.033668365 -0.010872091 -0.0041475105 -0.0098367175 -0.0036036076 -0.047152195 -0.04734936 -0.023338774
-0.0068997005 0.0065689436 -0.027176006 0.0013297804 -0.04654703 -0.019271554 -0.011774484 0.020626463
-0.05284821 0.042508878 -0.05728443 -0.04074033 0.030824982 -0.011412095 0.057646345 -0.019445686
0.0561102 0.030906945 0.014899266 -0.060564734 -0.0028367753 0.037036013 -0.008151227 0.058827206
-0.02080391 -0.051660825 0.032163378 0.053220555 0.071261674 0.05336212 0.115429476 -0.05785488
-0.01600585 -0.009010489 -0.01272074 -0.016095167 0.020927848 -0.082534604 -0.101892315 0.014638818
0.077832274 -0.07051141 -0.12185199 0.11084209 -0.101774596 -0.029556276 -0.086759925 -0.04828203
0.006723307 -0.005680722 0.01030848 -0.061972722 0.027889084 -0.1008202 -0.058324877 0.035486706
-0.06296063 -0.007041605 -0.07216789 -0.068038315 -0.086474285 -0.0062928223 0.030108735 0.02405649
0.047073804 0.07608445 -0.03201641 -0.0748685 -0.046957973 0.006772692 -0.04395911 0.04318073
0.038690045 0.05092839 4.8657297e-05 -0.03247123 0.06745744 -0.08727998 0.018398328 -0.09146968
-0.025698192 0.020605488 -0.08104692 0.12313605 -0.06301816 0.008273045 0.037523836 -0.016510526
-0.02665323 0.025075853 -0.028584389 0.05895439 -0.051899657 0.04933713 -0.02140312 -0.05742769
0.038587827 -0.04873304 0.004898318 0.062365986 0.052609436 0.03379469 0.063266814 0.024522167
-0.014208062 -0.101274505 -0.048096184 -0.08160546 -0.009784378 0.094180234 -0.058618236 -0.039504036
-0.023997242 0.0926059 -0.10105068 -0.035445474 -0.007951618 -0.012541824 -0.0059554 -0.09659317
-0.007335151 0.008151432 -0.008272449 -0.034859847 -0.10929057 0.061097495 -0.0116364295 0.040568523
-0.0029186108 -0.013949147 -0.008569518 0.009518293 -0.006117034 0.043097965 -0.002415126 -0.016401378
0.08169049 -0.06923743 0.06651664 -0.020767085 0.08799481 -0.030659493 0.013687229 -0.042613715
-0.030563239 -0.032839805 -0.038322095 -0.008031613 -0.03379249 0.00090490625 -0.025881039 -0.013763064
-0.10082933 -0.071926415 0.033653066 -0.013083215 -0.0050949394 0.054124102 0.0569619 6.683416e-05
-0.006025966 0.06982941 0.051403616 0.037055463 0.023141533 -0.0904604 -0.024886815 -0.0027028944
-0.016959475 -0.07949124 -0.04965274 -0.011819994 -0.04762108 0.077510335 -0.0018695475 0.020994872
0.020209577 0.052108545 0.0001627862 0.017606996 0.03415035 -0.0039603156 -0.046944536 0.055117548
-0.010505887 -0.046782702 -0.031965543 0.03482699 0.09854644 -0.019583752 -0.078361474 0.028184325
0.030642062 -0.01805401 0.028391248 0.010431809 -0.012656443 0.08863835 -0.013386541 -0.07674751
0.02681061 -0.05640764 -0.020872138 -0.045785967 0.06500627 -0.06600568 0.04884278 0.033825178
0.011540067 -0.09172748 -0.0015297717 -0.006998262 -0.01762099 -0.06155533 -0.041013233 0.022902478
0.078437574 -0.075786576 0.028810743 0.017259553 0.036922168 -0.111020036 0.1417605 -0.09512313
-0.022140704 -0.04557028 -0.031940695 0.02936189 -0.059152737 0.10969712 -0.04221862 -0.06443339
00000000: 36e0 dbbd 8349 9e3c 436a 3fbd 3a05 5c3d
00000010: 448e 48bc 494e 03bc 449a 16bd 2e8a 643d
00000020: 3dfd 72bb dc70 febc 2ca1 b33d 72b5 8cbc
00000030: 9aba a73d 86e5 ae3b 3be5 5d3d 1e58 113c
00000040: d7e7 09bd db20 32bc d7e7 87bb 2f2a 21bc
00000050: 812a 6cbb a922 41bd 67f1 41bd f530 bfbc
00000060: e216 e2bb 4b40 d73b 37a0 debc 074c ae3a
00000070: 19a8 3ebd 61df 9dbc c4e9 40bc d4f8 a83c
00000080: 5d77 58bd ca1d 2e3d 14a3 6abd 55df 26bd
00000090: ac84 fc3c ccf9 3abc 931e 6c3d 8f4c 9fbc
000000a0: cfd3 653d 9030 fd3c 0d1c 743c ba12 78bd
000000b0: 31e9 39bb 13b3 173d b98c 05bc ccf4 703d
000000c0: f66c aabc 4d9a 53bd bfbd 033d ccfd 593d
000000d0: a4f1 913d 3d92 5a3d 4a66 ec3d 3df9 6cbd
000000e0: b31e 83bc bba0 13bc a76a 50bc 03da 83bc
000000f0: e170 ab3c e707 a9bd ebac d0bd a7d7 6f3c
00000100: 8766 9f3d 4968 90bd 898d f9bd 2d01 e33d
00000110: 336f d0bd 0120 f2bc 30af b1bd 61c3 45bd
00000120: 304f dc3b 5a25 babb e6e4 283c 1cd7 7dbd
00000130: a677 e43c d27a cebd 11e6 6ebd 825a 113d
00000140: 81f1 80bd 44bd e6bb c2cc 93bd ac57 8bbd
00000150: 6e19 b1bd 0534 cebb 98a6 f63c 1e12 c53c
00000160: 76d0 403d 2ad2 9b3d a423 03bd a854 99bd
00000170: 0157 40bd 75ed dd3b 780e 34bd 47de 303d
00000180: 7479 1e3d 4a9a 503d 6015 4c38 8d00 05bd
00000190: 2027 8a3d d9bf b2bd 17b8 963c 7554 bbbd
000001a0: 0485 d2bc d7cc a83c edfb a5bd c12e fc3d
000001b0: aa0f 81bd aa8b 073c 98b2 193d 1541 87bc
000001c0: e057 dabc e06b cd3c cf29 eabc 297a 713d
000001d0: bc94 54bd bb15 4a3d 9955 afbc 4c39 6bbd
000001e0: 450e 1e3d 4c9c 47bd 1282 a03b 7a73 7f3d
000001f0: fe7c 573d 4d6c 0a3d 0892 813d b6e2 c83c
00000200: eec8 68bc 0269 cfbd 8100 45bd c320 a7bd
00000210: a84e 20bc 91e1 c03d ad19 70bd fcce 21bd
00000220: dd95 c4bc 29a8 bd3d a9f3 cebd 462f 11bd
00000230: 8147 02bc 397c 4dbc 8425 c3bb a4d2 c5bd
00000240: b55b f0bb 958d 053c 2a89 07bc 33c9 0ebd
00000250: bcd3 dfbd 5e41 7a3d b9a6 3ebc 2e2b 263d
00000260: 2a46 3fbb f78a 64bc 2a67 0cbc 9df2 1b3c
00000270: 6671 c8bb 7e87 303d 1747 1ebb 2f5c 86bc
00000280: 584d a73d 5bcc 8dbd e039 883d bc1f aabc
00000290: 9f36 b43d 9e29 fbbc 6640 603c b88b 2ebd
000002a0: c25f fabc 0883 06bd a1f7 1cbd 0797 03bc
000002b0: fe69 0abd 3b37 6d3a 7904 d4bc 797e 61bc
000002c0: 9c7f cebd 284e 93bd ccd7 093d fb5a 56bc
000002d0: 73f3 a6bb 3cb1 5d3d e250 693d 5129 8c38
000002e0: 7775 c5bb b902 8f3d 998c 523d 78c7 173d
000002f0: 5093 bd3c 4d43 b9bd 6fdf cbbc 0b23 31bb
00000300: 99ee 8abc 4ecc a2bd ac60 4bbd a6a8 41bc
00000310: 520e 43bd bdbd 9e3d 9b0b f5ba 70fd ab3c
00000320: 8e8e a53c c56f 553d 96b1 2a39 8c3c 903c
00000330: 3de1 0b3d 89c5 81bb ea48 40bd f0c2 613d
00000340: e220 2cbc 389f 3fbd 4dee 02bd bfa6 0e3d
00000350: b7d2 c93d 1b6e a0bc fb7b a0bd d0e2 e63c
00000360: 1005 fb3c 01e6 93bc c394 e83c 2eea 2a3c
00000370: f85c 4fbc 0688 b53d 3953 5bbc cc2d 9dbd
00000380: eda1 db3c b30b 67bd 0cfc aabc 118a 3bbd
00000390: 0222 853d fc2d 87bd 5e0f 483d 458c 0a3d
000003a0: 8d12 3d3c 9edb bbbd 9f82 c8ba ad51 e5bb
000003b0: e559 90bc 7121 7cbd 7efd 27bd fa9d bb3c
000003c0: e1a3 a03d fe35 9bbd 8204 ec3c e863 8d3c
000003d0: b33b 173d 795e e3bd aa29 113e eacf c2bd
000003e0: 6c60 b5bc e7a7 3abd 3fd4 02bd 5988 f03c
000003f0: 244a 72bd e2a8 e03d 6fed 2cbd a7f5 83bd

feature_extractor.3.bias f4 [128]
0.21978177 -0.03974368 -0.0151178185 0.0043647448 0.03717992 0.09516526 0.000116033094 0.032950774
-0.13835092 -0.056995492 -0.12566526 -0.017849725 -0.08841303 0.061665203 0.20953728 0.024061035
-0.008345399 0.23201942 0.009693467 0.116019584 -0.04361645 0.07678039 0.062290154 0.023629874
-0.09785063 0.14418958 -0.020104786 -0.06415545 0.097795255 -0.10791947 -0.03277558 0.33305737
-0.01749256 -0.017082073 -0.16519931 0.06882678 -0.12581359 0.018472139 -0.07635988 0.21017614
-0.10567128 -0.12705164 -0.10604005 0.13947944 -0.06897338 -0.027251383 0.17376745 0.0015123124
-0.010829985 0.0037461745 -0.08348312 0.08402895 -0.07319306 0.0457906 -0.028742425 0.0489016
0.0025773058 -0.1418251 0.011680943 0.10422829 0.12198776 -0.061602145 0.014900918 -0.042075083
-0.0812212 0.046821292 -0.019859288 -0.121872135 0.17585513 0.14854676 0.008187844 0.072151415
0.11417729 -0.10821213 0.22011623 -0.05755236 0.08556881 0.07326234 0.13793011 -0.055642974
0.24962391 0.019883705 0.112935156 0.042672303 0.06963458 0.07633271 -0.008882718 0.0049953274
-0.08666494 -0.053116117 0.14185765 0.19791926 0.17981121 -0.12947938 -0.11988521 0.03543436
0.034196906 0.13832237 -0.11945163 -0.013298848 -0.18382247 -0.016010027 0.19964175 -0.17091437
-0.095045134 -0.055628616 -0.06252723 -0.028249623 -0.051415812 -0.09331836 0.09192537 -0.12956029
0.13062367 -0.04821864 -0.039086897 0.010547983 -0.0047995513 -0.0002928255 0.31831044 0.14418457
-0.1328365 -0.1016301 0.003989503 -0.08114602 0.023669166 -0.025952213 -0.14567871 0.09611086
00000000: 790e 613e 45ca 22bd bab0 77bc 2206 8f3b
00000010: f949 183d 01e6 c23d cb56 f338 64f7 063d
00000020: ddab 0dbe 1b74 69bd 65ae 00be 9639 92bc
00000030: e411 b5bd a794 7c3d f190 563e a61b c53c
00000040: 24bb 08bc 8096 6d3e 59d1 1e3c ad9b ed3d
00000050: 2aa7 32bd 0a3f 9d3d f623 7f3d 7093 c13c
00000060: e965 c8bd 6fa6 133e cbb2 a4bc ef63 83bd
00000070: e148 c83d e204 ddbd b03f 06bd 7f86 aa3e
00000080: 8f4c 8fbc b4ef 8bbc 022a 29be 0ef5 8c3d
00000090: 47d5 00be e252 973c 9262 9cbd 6a38 573e
000000a0: 2f6a d8bd d319 02be 872b d9bd b3d3 0e3e
000000b0: ea41 8dbd 4b3e dfbc 18f0 313e c938 c63a
000000c0: 4070 31bc 6182 753b 33f9 aabd 5f17 ac3d
000000d0: 3ee6 95bd ed8e 3b3d 3c75 ebbc 0b4d 483d
000000e0: 04e8 283b 993a 11be 6d61 3f3c a475 d53d
000000f0: b8d4 f93d 8852 7cbd fb22 743c ec56 2cbd
00000100: 4d57 a6bd afc7 3f3d f2af a2bc 1998 f9bd
00000110: 5e13 343e a41c 183e 4f26 063c 1fc4 933d
00000120: c8d5 e93d 529e ddbd 2666 613e 06bc 6bbd
00000130: b33e af3d 910a 963d 8d3d 0d3e e3e9 63bd
00000140: 699d 7f3e 27e3 a23c 8c4a e73d 27c9 2e3d
00000150: 939c 8e3d 5354 9c3d d288 11bc d8af a33b
00000160: 637d b1bd 4990 59bd 2243 113e 59ab 4a3e
00000170: 6e20 383e 3e96 04be 6186 f5bd 9f23 113d
00000180: 0e12 0c3d 61a4 0d3e 0ea3 f4bd 69e3 59bc
00000190: f53b 3cbe 7627 83bc e36e 4c3e 2d04 2fbe
000001a0: 06a7 c2bd d5da 63bd 470e 80bd c16b e7bc
000001b0: 6399 52bd b21d bfbd 5e43 bc3d 74ab 04be
000001c0: 36c2 053e e980 45bd 9519 20bd 73d1 2c3c
000001d0: 8e45 9dbb 6086 99b9 96f9 a23e 1fa5 133e
000001e0: 4b06 08be 7123 d0bd 60ba 823b e22f a6bd
000001f0: d7e5 c13c bc99 d4bc cd2c 15be c5d5 c43d

feature_extractor.6.weight f4 [94, 128]
-0.036100887 0.16836599 0.10628089 -0.026250869 -0.11958882 0.1753666 -0.066184536 0.07643892
0.1326657 0.18697019 -0.059799746 -0.0231735 -0.07296092 0.2130034 -0.15627296 0.13550006
0.22884437 -0.14005858 -0.101059444 0.043880925 0.15628469 -0.09834559 -0.047333576 -0.059279036
-0.008867648 -0.15292048 0.12667637 -0.05191388 0.047952436 -0.03254583 0.12373942 -0.16964807
-0.106865935 0.136684 0.015555931 -0.09791696 0.070737325 -0.052595478 0.13360275 -0.11185158
0.11358859 0.07655003 0.11691305 -0.038971454 -0.13538907 0.09865939 0.07727838 0.14677745
0.066360116 -0.04382543 -0.11178723 -0.07991754 0.14630492 -0.11223107 0.19689639 -0.09094631
-0.014414375 0.047873225 -0.060113214 -0.043628152 -0.018224636 -0.08103108 0.24807793 0.19941239
0.2638467 0.16775653 0.20728593 -0.071627274 0.112254545 -0.17010924 0.16035277 0.012509932
-0.013975581 -0.07293454 0.11702954 0.17338921 0.1450684 0.14690924 -0.015724128 0.052934866
-0.12192751 -0.116988994 -0.055278055 0.055882543 -0.13349299 0.1461526 -0.042618692 0.21929325
0.0937052 0.09228547 -0.10733428 -0.09815688 0.14679845 0.13119024 0.07816095 -0.09714384
0.19315043 -0.15434915 0.07444227 0.18612857 0.17438017 0.1669619 -0.17642118 -0.14910567
0.16274658 -0.049812246 0.008567418 -0.04783432 0.20499751 0.18255752 -0.07384813 0.11449814
-0.037761718 0.036500916 0.0601035 -0.09037125 0.14777261 0.028650519 -0.16993827 -0.16101374
-0.06178742 0.022872135 -0.014469842 0.0904039 0.038815398 -0.02367179 0.04942726 0.1352022
-0.19597712 0.017515514 -0.021172578 0.14959861 0.05092186 -0.07467449 0.14421003 0.16314387
0.0919236 0.016287908 0.05418862 0.24382356 0.19015513 -0.08740687 -0.04695005 0.03736534
0.0030152171 -0.15082663 0.27172676 -0.009948037 -0.07460967 0.016701197 0.10586975 0.1220402
0.17696035 -0.19153926 0.10647652 0.076188475 -0.032303985 0.12158977 0.04233032 -0.26675203
-0.05049483 0.009345344 0.1884845 0.18377964 0.08757659 0.20718138 0.105119616 -0.009810735
0.12404562 0.06517036 -0.048690338 -0.010947421 0.2778504 -0.07263609 -0.21386977 0.012153187
0.034424283 0.19015652 0.16925658 0.04058669 -0.050540853 -0.037467487 0.030954277 -0.06782764
0.12642097 0.031089846 -0.004731946 -0.024857242 -0.16772188 0.07406557 -0.018626431 -0.025062175
-0.031676058 -0.061864726 0.05848754 0.105129614 -0.11149508 -0.15807721 -0.026916038 -0.1469297
-0.01616452 0.15434092 -0.1561849 0.042368505 -0.14242448 -0.11389794 -0.10286488 0.096614406
-0.07700726 0.13143003 0.028555071 -0.09650713 0.023407387 -0.06236772 0.03742112 0.025029546
0.13272598 0.12885456 -0.10074295 -0.1611113 -0.12636445 0.08791814 0.05897323 0.028172424
0.025623145 -0.06469748 0.08136362 0.020148957 -0.04905198 -0.052580893 -0.1578406 0.15975785
0.058696043 0.22837125 0.13807908 0.07514743 -0.0001135518 0.1244439 0.2428458 0.07314986
-0.040540766 0.12906797 0.17561238 0.04973604 0.065303765 -0.004958793 -0.14297034 0.15950333
0.11893561 -0.013955514 0.15482077 0.08092119 0.039388485 0.10353638 0.13396308 -0.09958958
00000000: 86de 13bd 2268 2c3e cca9 d93d 100c d7bc
00000010: fcea f4bd 4d93 333e c28b 87bd 028c 9c3d
00000020: 84d9 073e 1d75 3f3e 94f0 74bd 5ad6 bdbc
00000030: 896c 95bd 901d 5a3e 0506 20be 87c0 0a3e
00000040: 2e56 6a3e 846b 0fbe 41f8 cebd 7cbc 333d
00000050: 1809 203e 6a69 c9bd dae0 41bd 93ce 72bd
00000060: 9d49 11bc 3097 1cbe 73b7 013e a6a3 54bd
00000070: c669 443d c74e 05bd 186b fd3d 39b8 2dbe
00000080: 87dc dabd e4f6 0b3e 4ede 7e3c b088 c8bd
00000090: bbde 903d 5b6e 57bd 29cf 083e 7112 e5bd
000000a0: 22a1 e83d 43c6 9c3d 1c70 ef3d 88a0 1fbd
000000b0: 6fa3 0abe ef0d ca3d 2144 9e3d d44c 163e
000000c0: d0e7 873d 4b82 33bd b4f0 e4bd cfab a3bd
000000d0: f5d0 153e 67d9 e5bd 359f 493e 0f42 babd
000000e0: 452a 6cbc b716 443d 4639 76bd 6fb3 32bd
000000f0: d54b 95bc 9ff3 a5bd 2408 7e3e c332 4c3e
00000100: ea16 873e 5ec8 2b3e c342 543e 52b1 92bd
00000110: b6e5 e53d 1e31 2ebe 8433 243e 75f6 4c3c
00000120: d6f9 64bc b45e 95bd 2fad ef3d f18c 313e
00000130: d08c 143e 606f 163e e3cf 80bc 3bd2 583d
00000140: 21b5 f9bd ed97 efbd 3e6b 62bd 18e5 643d
00000150: 63b2 08be 07a9 153e f090 2ebd 698e 603e
00000160: 83e8 bf3d 2a00 bd3d 13d2 dbbd 7906 c9bd
00000170: 5552 163e bc56 063e d912 a03d 59f3 c6bd
00000180: 3ac9 453e b40d 1ebe 3075 983d 7d98 3e3e
00000190: b790 323e 0ff8 2a3e c1a7 34be 28af 18be
000001a0: 0aa7 263e ed07 4cbd 5b5e 0c3c eced 43bd
000001b0: deea 513e 5cf0 3a3e b03d 97bd 007e ea3d
000001c0: 08ac 1abd fc81 153d 162f 763d 9014 b9bd
000001d0: b451 173e 7eb4 ea3c 4c04 2ebe c9e0 24be
000001e0: ce14 7dbd 585e bb3c eb12 6dbc ae25 b93d
000001f0: e5fc 1e3d 57eb c1bc 3d74 4a3d 7272 0a3e
00000200: 3aae 48be b27c 8f3c 1d72 adbc 6130 193e
00000210: 7193 503d f0ee 98bd cbab 133e 300f 273e
00000220: 7142 bc3d 386e 853c e3f4 5d3d e2ac 793e
00000230: 07b8 423e 6002 b3bd b24e 40bd 660c 193d
00000240: f39a 453b 4c72 1abe c51f 8b3e 17fd 22bc
00000250: f4cc 98bd f3d0 883c 3dd2 d83d 36f0 f93d
00000260: 1835 353e de22 44be 5d10 da3d b408 9c3d
00000270: 2f51 04bd 0f04 f93d 8f62 2d3d b993 88be
00000280: abd3 4ebd 371d 193c 1502 413e bb30 3c3e
00000290: 5b5b b33d 5b27 543e f448 d73d 34bd 20bc
000002a0: a10b fe3d 0a78 853d 856f 47bd d05c 33bc
000002b0: 6842 8e3e 3bc2 94bd ad00 5bbe 291e 473c
000002c0: 7a00 0d3d 64b8 423e 9951 2d3e 3b3e 263d
000002d0: ed03 4fbd 8277 19bd d393 fd3c 38e9 8abd
000002e0: 8074 013e 22b0 fe3c 710e 9bbb 6aa1 cbbc
000002f0: 49bf 2bbe b1af 973d 7596 98bc 314f cdbc
00000300: c1be 01bd de65 7dbd a190 6f3d 324e d73d
00000310: 8857 e4bd fede 21be 067f dcbc bd74 16be
00000320: 756b 84bc 8c0b 1e3e efee 1fbe 998a 2d3d
00000330: b9d7 11be 5343 e9bd d2aa d2bd c6dd c53d
00000340: fbb5 9dbd 9895 063e 53ec e93c 88a5 c5bd
00000350: d9c0 bf3c 4b75 7fbd e346 193d c30a cd3c
00000360: 52e9 073e 73f2 033e 5252 cebd 5cfa 24be
00000370: af65 01be 6d0e b43d ea8d 713d dbc9 e63c
00000380: a1e7 d13c 1d80 84bd f8a1 a63d 6d0f a53c
00000390: bbea 48bd 105f 57bd f7a0 21be 9097 233e
000003a0: 436b 703d 27da 693e 9a64 0d3e e5e6 993d
000003b0: a922 eeb8 72dc fe3d 92ac 783e 98cf 953d
000003c0: 130e 26bd 652a 043e bbd3 333e 05b8 4b3d
000003d0: fbbd 853d 5f7d a2bb d166 12be d754 233e
000003e0: 8394 f33d aba5 64bc 5689 1e3e 02ba a53d
000003f0: d255 213d e20a d43d 9e2d 093e 9ff5 cbbd

feature_extractor.6.bias f4 [94]
-0.39452708 -0.34802505 0.0017577441 -0.02372526 -0.040527828 -0.080314174 -0.12050718 -0.10743223
-0.12318424 0.19735377 -0.047413465 -0.12982777 0.012226509 0.101101 -0.20304336 0.01182028
0.12757297 0.0020305403 0.007291596 -0.09697564 0.032583322 0.21679951 0.0649471 -0.14910646
-0.046790376 -0.046975765 -0.2238298 0.17122969 -0.17663541 -0.1371612 -0.004773834 -0.10453959
-0.053456817 0.07976754 0.03875493 0.06347971 0.097742245 -0.09858755 -0.054081734 -0.1661787
-0.09995698 -0.004528152 -0.0469103 0.020477943 -0.088849425 -0.05670312 0.051288553 0.08637367
-0.107403144 0.05968052 -0.041123543 0.012863833 0.011727865 -0.030528195 -0.05769021 0.065244325
0.046346005 -0.04487433 -0.02595969 0.041456115 0.055623848 -0.03701453 -0.014352178 -0.019582022
-0.012800564 0.007841853 0.02158273 -0.05990774 0.005806908 -0.025241425 -0.01853523 -0.017071089
0.028695973 -0.032899488 -0.053123243 -0.031888407 -0.058350664 0.052721612 -0.021044213 -0.0034409424
-0.0010191232 0.017888684 -0.021120794 0.031945918 -0.0216141 -0.0072881733 0.018301452 -0.06874088
0.016438613 -0.05105517 0.03484239 -0.043574233 0.035353664 -0.03609024
00000000: 74ff c9be 5730 b2be 1b64 e63a 7a5b c2bc
00000010: 8200 26bd c27b a4bd 78cc f6bd 6e05 dcbd
00000020: 0548 fcbd 1b17 4a3e 9f34 42bd 92f1 04be
00000030: b251 483c 0b0e cf3d 99ea 4fbe d9a9 413c
00000040: 7da2 023e d012 053b 57ee ee3b 2a9b c6bd
00000050: 1776 053d b100 5e3e fc02 853d 5daf 18be
00000060: 44a7 3fbd a969 40bd a433 65be d656 2f3e
00000070: eadf 34be fc73 0cbe d26d 9cbb da18 d6bd
00000080: 89f5 5abd 2a5d a33d 7dbd 1e3d a601 823d
00000090: 162d c83d 45e8 c9bd cf84 5dbd c02a 2abe
000000a0: 3fb6 ccbd e460 94bb 0425 40bd 5cc1 a73c
000000b0: b0f6 b5bd 8841 68bd f213 523d aee4 b03d
000000c0: 2ef6 dbbd 9073 743d 2971 28bd d4c2 523c
000000d0: 3b26 403c 4416 fabc 924c 6cbd d19e 853d
000000e0: 4fd5 3d3d 25ce 37bd 6aa9 d4bc e3cd 293d
000000f0: d5d5 633d 8c9c 17bd 6625 6bbc 7a6a a0bc
00000100: 75b9 51bc 1e7b 003c 44ce b03c d261 75bd
00000110: e047 be3b 1bc7 cebc 32d7 97bc abd8 8bbc
00000120: d113 eb3c 9dc1 06bd c297 59bd 6b9d 02bd
00000130: 1b01 6fbd 9ef2 573d ea64 acbc 6f81 61bb
00000140: 1a94 85ba 4a8b 923c 8405 adbc b9d9 023d
00000150: 0e10 b1bc a1d1 eebb edec 953c 05c8 8cbd
00000160: 45aa 863c 3a1f 51bd e5b6 0e3d e57a 32bd
00000170: 01cf 103d 5cd3 13bd
